…
3, data_dir='data/smp', differentiable=False, dropout_rate=0.4, encoder_hidden_dim=256, index=3, intent_decoder_hidden_dim=64, intent_embedding_dim=8, intent_forcing_rate=0.9, l2_penalty=1e-06, learning_rate=0.001, num_epoch=300, random_state=3, save_dir='save/smp_3', slot_decoder_hidden_dim=64, slot_embedding_dim=32, slot_forcing_rate=0.9, template_encoder=True, template_share_encoder=False, word_embedding_dim=256)
[2021-04-09 15:43:46,982][140590680069952][train.py][line: 116][INFO] ## ModelManager(
  (_ModelManager__embedding): EmbeddingCollection(
    (_EmbeddingCollection__embedding_layer): Embedding(1437, 256)
  )
  (_ModelManager__encoder): LSTMEncoder(
    (_LSTMEncoder__dropout_layer): Dropout(p=0.4, inplace=False)
    (_LSTMEncoder__lstm_layer): LSTM(256, 128, batch_first=True, dropout=0.4, bidirectional=True)
  )
  (_ModelManager__attention): SelfAttention(
    (_SelfAttention__dropout_layer): Dropout(p=0.4, inplace=False)
    (_SelfAttention__attention_layer): QKVAttention(
      (_QKVAttention__query_layer): Linear(in_features=256, out_features=1024, bias=True)
      (_QKVAttention__key_layer): Linear(in_features=256, out_features=1024, bias=True)
      (_QKVAttention__value_layer): Linear(in_features=256, out_features=128, bias=True)
      (_QKVAttention__dropout_layer): Dropout(p=0.4, inplace=False)
    )
  )
  (_ModelManager__intent_decoder): LSTMDecoder(
    (_LSTMDecoder__embedding_layer): Embedding(18, 8)
    (_LSTMDecoder__dropout_layer): Dropout(p=0.4, inplace=False)
    (_LSTMDecoder__lstm_layer): LSTM(392, 64, batch_first=True, dropout=0.4)
    (_LSTMDecoder__linear_layer): Linear(in_features=64, out_features=18, bias=True)
  )
  (_ModelManager__slot_decoder): LSTMDecoder(
    (_LSTMDecoder__embedding_layer): Embedding(110, 32)
    (_LSTMDecoder__dropout_layer): Dropout(p=0.4, inplace=False)
    (_LSTMDecoder__lstm_layer): LSTM(949, 64, batch_first=True, dropout=0.4)
    (_LSTMDecoder__linear_layer): Linear(in_features=64, out_features=110, bias=True)
  )
  (_ModelManager__bio_decoder): LSTMDecoder(
    (_LSTMDecoder__embedding_layer): Embedding(3, 8)
    (_LSTMDecoder__dropout_layer): Dropout(p=0.4, inplace=False)
    (_LSTMDecoder__lstm_layer): LSTM(392, 64, batch_first=True, dropout=0.4)
    (_LSTMDecoder__linear_layer): Linear(in_features=64, out_features=3, bias=True)
  )
  (_ModelManager__dropout_layer): Dropout(p=0.4, inplace=False)
  (_ModelManager__template_encoder): LSTM(256, 256, batch_first=True, dropout=0.4, bidirectional=True)
  (_ModelManager__intent_embedding): Embedding(18, 18)
  (_ModelManager__bio_embedding): Embedding(3, 3)
)
[2021-04-09 15:44:20,374][140590680069952][process.py][line: 147][INFO] ## [Epoch  0]: The total slot loss on train data is 247.188236, intent data is 152.336784, bio data is 73.735682, cost about 31.0845 seconds.
[2021-04-09 15:44:35,430][140590680069952][process.py][line: 165][INFO] ## 
Test result: slot f1 score: 0.089980, intent acc score: 0.648330, semantic accuracy score: 0.023576. BIO f1 score 0.407031 
…
